…
nerf_head.density_predicter.0.bias - torch.Size([40]): 
The value is the same before and after calling `init_weights` of SparseMSFBOcc  

nerf_head.density_predicter.2.weight - torch.Size([1, 40]): 
The value is the same before and after calling `init_weights` of SparseMSFBOcc  

nerf_head.density_predicter.2.bias - torch.Size([1]): 
The value is the same before and after calling `init_weights` of SparseMSFBOcc  
2024-05-07 10:32:44,277 - mmdet - INFO - Model:
SparseMSFBOcc(
  (focal_loss): CustomFocalLoss()
  (forward_projection): BEVDetStereoForwardProjection(
    (img_backbone): ResNet(
      (conv1): Conv2d(3, 64, kernel_size=(7, 7), stride=(2, 2), padding=(3, 3), bias=False)
      (bn1): BatchNorm2d(64, eps=1e-05, momentum=0.1, affine=True, track_running_stats=True)
      (relu): ReLU(inplace=True)
      (maxpool): MaxPool2d(kernel_size=3, stride=2, padding=1, dilation=1, ceil_mode=False)
      (layer1): ResLayer(
        (0): Bottleneck(
          (conv1): Conv2d(64, 64, kernel_size=(1, 1), stride=(1, 1), bias=False)
          (bn1): BatchNorm2d(64, eps=1e-05, momentum=0.1, affine=True, track_running_stats=True)
          (conv2): Conv2d(64, 64, kernel_size=(3, 3), stride=(1, 1), padding=(1, 1), bias=False)
          (bn2): BatchNorm2d(64, eps=1e-05, momentum=0.1, affine=True, track_running_stats=True)
          (conv3): Conv2d(64, 256, kernel_size=(1, 1), stride=(1, 1), bias=False)
          (bn3): BatchNorm2d(256, eps=1e-05, momentum=0.1, affine=True, track_running_stats=True)
          (relu): ReLU(inplace=True)
          (downsample): Sequential(
            (0): Conv2d(64, 256, kernel_size=(1, 1), stride=(1, 1), bias=False)
            (1): BatchNorm2d(256, eps=1e-05, momentum=0.1, affine=True, track_running_stats=True)
          )
        )
        init_cfg={'type': 'Constant', 'val': 0, 'override': {'name': 'norm3'}}
        (1): Bottleneck(
          (conv1): Conv2d(256, 64, kernel_size=(1, 1), stride=(1, 1), bias=False)
          (bn1): BatchNorm2d(64, eps=1e-05, momentum=0.1, affine=True, track_running_stats=True)
          (conv2): Conv2d(64, 64, kernel_size=(3, 3), stride=(1, 1), padding=(1, 1), bias=False)
          (bn2): BatchNorm2d(64, eps=1e-05, momentum=0.1, affine=True, track_running_stats=True)
          (conv3): Conv2d(64, 256, kernel_size=(1, 1), stride=(1, 1), bias=False)
          (bn3): BatchNorm2d(256, eps=1e-05, momentum=0.1, affine=True, track_running_stats=True)
          (relu): ReLU(inplace=True)
        )
        init_cfg={'type': 'Constant', 'val': 0, 'override': {'name': 'norm3'}}
        (2): Bottleneck(
          (conv1): Conv2d(256, 64, kernel_size=(1, 1), stride=(1, 1), bias=False)
          (bn1): BatchNorm2d(64, eps=1e-05, momentum=0.1, affine=True, track_running_stats=True)
          (conv2): Conv2d(64, 64, kernel_size=(3, 3), stride=(1, 1), padding=(1, 1), bias=False)
          (bn2): BatchNorm2d(64, eps=1e-05, momentum=0.1, affine=True, track_running_stats=True)
          (conv3): Conv2d(64, 256, kernel_size=(1, 1), stride=(1, 1), bias=False)
          (bn3): BatchNorm2d(256, eps=1e-05, momentum=0.1, affine=True, track_running_stats=True)
          (relu): ReLU(inplace=True)
        )
        init_cfg={'type': 'Constant', 'val': 0, 'override': {'name': 'norm3'}}
      )
      (layer2): ResLayer(
        (0): Bottleneck(
          (conv1): Conv2d(256, 128, kernel_size=(1, 1), stride=(1, 1), bias=False)
          (bn1): BatchNorm2d(128, eps=1e-05, momentum=0.1, affine=True, track_running_stats=True)
          (conv2): Conv2d(128, 128, kernel_size=(3, 3), stride=(2, 2), padding=(1, 1), bias=False)
          (bn2): BatchNorm2d(128, eps=1e-05, momentum=0.1, affine=True, track_running_stats=True)
          (conv3): Conv2d(128, 512, kernel_size=(1, 1), stride=(1, 1), bias=False)
          (bn3): BatchNorm2d(512, eps=1e-05, momentum=0.1, affine=True, track_running_stats=True)
          (relu): ReLU(inplace=True)
          (downsample): Sequential(
            (0): Conv2d(256, 512, kernel_size=(1, 1), stride=(2, 2), bias=False)
            (1): BatchNorm2d(512, eps=1e-05, momentum=0.1, affine=True, track_running_stats=True)
          )
        )
        init_cfg={'type': 'Constant', 'val': 0, 'override': {'name': 'norm3'}}
        (1): Bottleneck(
          (conv1): Conv2d(512, 128, kernel_size=(1, 1), stride=(1, 1), bias=False)
          (bn1): BatchNorm2d(128, eps=1e-05, momentum=0.1, affine=True, track_running_stats=True)
          (conv2): Conv2d(128, 128, kernel_size=(3, 3), stride=(1, 1), padding=(1, 1), bias=False)
          (bn2): BatchNorm2d(128, eps=1e-05, momentum=0.1, affine=True, track_running_stats=True)
          (conv3): Conv2d(128, 512, kernel_size=(1, 1), stride=(1, 1), bias=False)
          (bn3): BatchNorm2d(512, eps=1e-05, momentum=0.1, affine=True, track_running_stats=True)
          (relu): ReLU(inplace=True)
        )
        init_cfg={'type': 'Constant', 'val': 0, 'override': {'name': 'norm3'}}
        (2): Bottleneck(
          (conv1): Conv2d(512, 128, kernel_size=(1, 1), stride=(1, 1), bias=False)
          (bn1): BatchNorm2d(128, eps=1e-05, momentum=0.1, affine=True, track_running_stats=True)
          (conv2): Conv2d(128, 128, kernel_size=(3, 3), stride=(1, 1), padding=(1, 1), bias=False)
          (bn2): BatchNorm2d(128, eps=1e-05, momentum=0.1, affine=True, track_running_stats=True)
          (conv3): Conv2d(128, 512, kernel_size=(1, 1), stride=(1, 1), bias=False)
          (bn3): BatchNorm2d(512, eps=1e-05, momentum=0.1, affine=True, track_running_stats=True)
          (relu): ReLU(inplace=True)
        )
        init_cfg={'type': 'Constant', 'val': 0, 'override': {'name': 'norm3'}}
        (3): Bottleneck(
          (conv1): Conv2d(512, 128, kernel_size=(1, 1), stride=(1, 1), bias=False)
          (bn1): BatchNorm2d(128, eps=1e-05, momentum=0.1, affine=True, track_running_stats=True)
          (conv2): Conv2d(128, 128, kernel_size=(3, 3), stride=(1, 1), padding=(1, 1), bias=False)
          (bn2): BatchNorm2d(128, eps=1e-05, momentum=0.1, affine=True, track_running_stats=True)
          (conv3): Conv2d(128, 512, kernel_size=(1, 1), stride=(1, 1), bias=False)
          (bn3): BatchNorm2d(512, eps=1e-05, momentum=0.1, affine=True, track_running_stats=True)
          (relu): ReLU(inplace=True)
        )
        init_cfg={'type': 'Constant', 'val': 0, 'override': {'name': 'norm3'}}
      )
      (layer3): ResLayer(
        (0): Bottleneck(
          (conv1): Conv2d(512, 256, kernel_size=(1, 1), stride=(1, 1), bias=False)
          (bn1): BatchNorm2d(256, eps=1e-05, momentum=0.1, affine=True, track_running_stats=True)
          (conv2): Conv2d(256, 256, kernel_size=(3, 3), stride=(2, 2), padding=(1, 1), bias=False)
          (bn2): BatchNorm2d(256, eps=1e-05, momentum=0.1, affine=True, track_running_stats=True)
          (conv3): Conv2d(256, 1024, kernel_size=(1, 1), stride=(1, 1), bias=False)
          (bn3): BatchNorm2d(1024, eps=1e-05, momentum=0.1, affine=True, track_running_stats=True)
          (relu): ReLU(inplace=True)
          (downsample): Sequential(
            (0): Conv2d(512, 1024, kernel_size=(1, 1), stride=(2, 2), bias=False)
            (1): BatchNorm2d(1024, eps=1e-05, momentum=0.1, affine=True, track_running_stats=True)
          )
        )
        init_cfg={'type': 'Constant', 'val': 0, 'override': {'name': 'norm3'}}
        (1): Bottleneck(
          (conv1): Conv2d(1024, 256, kernel_size=(1, 1), stride=(1, 1), bias=False)
          (bn1): BatchNorm2d(256, eps=1e-05, momentum=0.1, affine=True, track_running_stats=True)
          (conv2): Conv2d(256, 256, kernel_size=(3, 3), stride=(1, 1), padding=(1, 1), bias=False)
          (bn2): BatchNorm2d(256, eps=1e-05, momentum=0.1, affine=True, track_running_stats=True)
          (conv3): Conv2d(256, 1024, kernel_size=(1, 1), stride=(1, 1), bias=False)
          (bn3): BatchNorm2d(1024, eps=1e-05, momentum=0.1, affine=True, track_running_stats=True)
          (relu): ReLU(inplace=True)
        )
        init_cfg={'type': 'Constant', 'val': 0, 'override': {'name': 'norm3'}}
        (2): Bottleneck(
          (conv1): Conv2d(1024, 256, kernel_size=(1, 1), stride=(1, 1), bias=False)
          (bn1): BatchNorm2d(256, eps=1e-05, momentum=0.1, affine=True, track_running_stats=True)
          (conv2): Conv2d(256, 256, kernel_size=(3, 3), stride=(1, 1), padding=(1, 1), bias=False)
          (bn2): BatchNorm2d(256, eps=1e-05, momentum=0.1, affine=True, track_running_stats=True)
          (conv3): Conv2d(256, 1024, kernel_size=(1, 1), stride=(1, 1), bias=False)
          (bn3): BatchNorm2d(1024, eps=1e-05, momentum=0.1, affine=True, track_running_stats=True)
          (relu): ReLU(inplace=True)
        )
        init_cfg={'type': 'Constant', 'val': 0, 'override': {'name': 'norm3'}}
        (3): Bottleneck(
          (conv1): Conv2d(1024, 256, kernel_size=(1, 1), stride=(1, 1), bias=False)
          (bn1): BatchNorm2d(256, eps=1e-05, momentum=0.1, affine=True, track_running_stats=True)
          (conv2): Conv2d(256, 256, kernel_size=(3, 3), stride=(1, 1), padding=(1, 1), bias=False)
          (bn2): BatchNorm2d(256, eps=1e-05, momentum=0.1, affine=True, track_running_stats=True)
          (conv3): Conv2d(256, 1024, kernel_size=(1, 1), stride=(1, 1), bias=False)
          (bn3): BatchNorm2d(1024, eps=1e-05, momentum=0.1, affine=True, track_running_stats=True)
          (relu): ReLU(inplace=True)
        )
        init_cfg={'type': 'Constant', 'val': 0, 'override': {'name': 'norm3'}}
        (4): Bottleneck(
          (conv1): Conv2d(1024, 256, kernel_size=(1, 1), stride=(1, 1), bias=False)
          (bn1): BatchNorm2d(256, eps=1e-05, momentum=0.1, affine=True, track_running_stats=True)
          (conv2): Conv2d(256, 256, kernel_size=(3, 3), stride=(1, 1), padding=(1, 1), bias=False)
          (bn2): BatchNorm2d(256, eps=1e-05, momentum=0.1, affine=True, track_running_stats=True)
          (conv3): Conv2d(256, 1024, kernel_size=(1, 1), stride=(1, 1), bias=False)
          (bn3): BatchNorm2d(1024, eps=1e-05, momentum=0.1, affine=True, track_running_stats=True)
          (relu): ReLU(inplace=True)
        )
        init_cfg={'type': 'Constant', 'val': 0, 'override': {'name': 'norm3'}}
        (5): Bottleneck(
          (conv1): Conv2d(1024, 256, kernel_size=(1, 1), stride=(1, 1), bias=False)
          (bn1): BatchNorm2d(256, eps=1e-05, momentum=0.1, affine=True, track_running_stats=True)
          (conv2): Conv2d(256, 256, kernel_size=(3, 3), stride=(1, 1), padding=(1, 1), bias=False)
          (bn2): BatchNorm2d(256, eps=1e-05, momentum=0.1, affine=True, track_running_stats=True)
          (conv3): Conv2d(256, 1024, kernel_size=(1, 1), stride=(1, 1), bias=False)
          (bn3): BatchNorm2d(1024, eps=1e-05, momentum=0.1, affine=True, track_running_stats=True)
          (relu): ReLU(inplace=True)
        )
        init_cfg={'type': 'Constant', 'val': 0, 'override': {'name': 'norm3'}}
      )
      (layer4): ResLayer(
        (0): Bottleneck(
          (conv1): Conv2d(1024, 512, kernel_size=(1, 1), stride=(1, 1), bias=False)
          (bn1): BatchNorm2d(512, eps=1e-05, momentum=0.1, affine=True, track_running_stats=True)
          (conv2): Conv2d(512, 512, kernel_size=(3, 3), stride=(2, 2), padding=(1, 1), bias=False)
          (bn2): BatchNorm2d(512, eps=1e-05, momentum=0.1, affine=True, track_running_stats=True)
          (conv3): Conv2d(512, 2048, kernel_size=(1, 1), stride=(1, 1), bias=False)
          (bn3): BatchNorm2d(2048, eps=1e-05, momentum=0.1, affine=True, track_running_stats=True)
          (relu): ReLU(inplace=True)
          (downsample): Sequential(
            (0): Conv2d(1024, 2048, kernel_size=(1, 1), stride=(2, 2), bias=False)
            (1): BatchNorm2d(2048, eps=1e-05, momentum=0.1, affine=True, track_running_stats=True)
          )
        )
        init_cfg={'type': 'Constant', 'val': 0, 'override': {'name': 'norm3'}}
        (1): Bottleneck(
          (conv1): Conv2d(2048, 512, kernel_size=(1, 1), stride=(1, 1), bias=False)
          (bn1): BatchNorm2d(512, eps=1e-05, momentum=0.1, affine=True, track_running_stats=True)
          (conv2): Conv2d(512, 512, kernel_size=(3, 3), stride=(1, 1), padding=(1, 1), bias=False)
          (bn2): BatchNorm2d(512, eps=1e-05, momentum=0.1, affine=True, track_running_stats=True)
          (conv3): Conv2d(512, 2048, kernel_size=(1, 1), stride=(1, 1), bias=False)
          (bn3): BatchNorm2d(2048, eps=1e-05, momentum=0.1, affine=True, track_running_stats=True)
          (relu): ReLU(inplace=True)
        )
        init_cfg={'type': 'Constant', 'val': 0, 'override': {'name': 'norm3'}}
        (2): Bottleneck(
          (conv1): Conv2d(2048, 512, kernel_size=(1, 1), stride=(1, 1), bias=False)
          (bn1): BatchNorm2d(512, eps=1e-05, momentum=0.1, affine=True, track_running_stats=True)
          (conv2): Conv2d(512, 512, kernel_size=(3, 3), stride=(1, 1), padding=(1, 1), bias=False)
          (bn2): BatchNorm2d(512, eps=1e-05, momentum=0.1, affine=True, track_running_stats=True)
          (conv3): Conv2d(512, 2048, kernel_size=(1, 1), stride=(1, 1), bias=False)
          (bn3): BatchNorm2d(2048, eps=1e-05, momentum=0.1, affine=True, track_running_stats=True)
          (relu): ReLU(inplace=True)
        )
        init_cfg={'type': 'Constant', 'val': 0, 'override': {'name': 'norm3'}}
      )
    )
    init_cfg=[{'type': 'Kaiming', 'layer': 'Conv2d'}, {'type': 'Constant', 'val': 1, 'layer': ['_BatchNorm', 'GroupNorm']}]
    (img_neck): CustomFPN(
      (lateral_convs): ModuleList(
        (0): ConvModule(
          (conv): Conv2d(1024, 256, kernel_size=(1, 1), stride=(1, 1))
        )
        (1): ConvModule(
          (conv): Conv2d(2048, 256, kernel_size=(1, 1), stride=(1, 1))
        )
      )
      (fpn_convs): ModuleList(
        (0): ConvModule(
          (conv): Conv2d(256, 256, kernel_size=(3, 3), stride=(1, 1), padding=(1, 1))
        )
      )
    )
    init_cfg={'type': 'Xavier', 'layer': 'Conv2d', 'distribution': 'uniform'}
    (img_view_transformer): LSSVStereoForwardPorjection(
      (depth_net): DepthNet(
        (reduce_conv): Sequential(
          (0): Conv2d(256, 256, kernel_size=(3, 3), stride=(1, 1), padding=(1, 1))
          (1): BatchNorm2d(256, eps=1e-05, momentum=0.1, affine=True, track_running_stats=True)
          (2): ReLU(inplace=True)
        )
        (context_conv): Conv2d(256, 80, kernel_size=(1, 1), stride=(1, 1))
        (bn): BatchNorm1d(27, eps=1e-05, momentum=0.1, affine=True, track_running_stats=True)
        (depth_mlp): Mlp(
          (fc1): Linear(in_features=27, out_features=256, bias=True)
          (act): ReLU()
          (drop1): Dropout(p=0.0, inplace=False)
          (fc2): Linear(in_features=256, out_features=256, bias=True)
          (drop2): Dropout(p=0.0, inplace=False)
        )
        (depth_se): SELayer(
          (conv_reduce): Conv2d(256, 256, kernel_size=(1, 1), stride=(1, 1))
          (act1): ReLU()
          (conv_expand): Conv2d(256, 256, kernel_size=(1, 1), stride=(1, 1))
          (gate): Sigmoid()
        )
        (context_mlp): Mlp(
          (fc1): Linear(in_features=27, out_features=256, bias=True)
          (act): ReLU()
          (drop1): Dropout(p=0.0, inplace=False)
          (fc2): Linear(in_features=256, out_features=256, bias=True)
          (drop2): Dropout(p=0.0, inplace=False)
        )
        (context_se): SELayer(
          (conv_reduce): Conv2d(256, 256, kernel_size=(1, 1), stride=(1, 1))
          (act1): ReLU()
          (conv_expand): Conv2d(256, 256, kernel_size=(1, 1), stride=(1, 1))
          (gate): Sigmoid()
        )
        (cost_volumn_net): Sequential(
          (0): Conv2d(80, 80, kernel_size=(3, 3), stride=(2, 2), padding=(1, 1))
          (1): BatchNorm2d(80, eps=1e-05, momentum=0.1, affine=True, track_running_stats=True)
          (2): Conv2d(80, 80, kernel_size=(3, 3), stride=(2, 2), padding=(1, 1))
          (3): BatchNorm2d(80, eps=1e-05, momentum=0.1, affine=True, track_running_stats=True)
        )
        (depth_conv): Sequential(
          (0): BasicBlock(
            (conv1): Conv2d(336, 256, kernel_size=(3, 3), stride=(1, 1), padding=(1, 1), bias=False)
            (bn1): BatchNorm2d(256, eps=1e-05, momentum=0.1, affine=True, track_running_stats=True)
            (conv2): Conv2d(256, 256, kernel_size=(3, 3), stride=(1, 1), padding=(1, 1), bias=False)
            (bn2): BatchNorm2d(256, eps=1e-05, momentum=0.1, affine=True, track_running_stats=True)
            (relu): ReLU(inplace=True)
            (downsample): Conv2d(336, 256, kernel_size=(1, 1), stride=(1, 1))
          )
          (1): BasicBlock(
            (conv1): Conv2d(256, 256, kernel_size=(3, 3), stride=(1, 1), padding=(1, 1), bias=False)
            (bn1): BatchNorm2d(256, eps=1e-05, momentum=0.1, affine=True, track_running_stats=True)
            (conv2): Conv2d(256, 256, kernel_size=(3, 3), stride=(1, 1), padding=(1, 1), bias=False)
            (bn2): BatchNorm2d(256, eps=1e-05, momentum=0.1, affine=True, track_running_stats=True)
            (relu): ReLU(inplace=True)
          )
          (2): BasicBlock(
            (conv1): Conv2d(256, 256, kernel_size=(3, 3), stride=(1, 1), padding=(1, 1), bias=False)
            (bn1): BatchNorm2d(256, eps=1e-05, momentum=0.1, affine=True, track_running_stats=True)
            (conv2): Conv2d(256, 256, kernel_size=(3, 3), stride=(1, 1), padding=(1, 1), bias=False)
            (bn2): BatchNorm2d(256, eps=1e-05, momentum=0.1, affine=True, track_running_stats=True)
            (relu): ReLU(inplace=True)
          )
          (3): ASPP(
            (aspp1): _ASPPModule(
              (atrous_conv): Conv2d(256, 96, kernel_size=(1, 1), stride=(1, 1), bias=False)
              (bn): BatchNorm2d(96, eps=1e-05, momentum=0.1, affine=True, track_running_stats=True)
              (relu): ReLU()
            )
            (aspp2): _ASPPModule(
              (atrous_conv): Conv2d(256, 96, kernel_size=(3, 3), stride=(1, 1), padding=(6, 6), dilation=(6, 6), bias=False)
              (bn): BatchNorm2d(96, eps=1e-05, momentum=0.1, affine=True, track_running_stats=True)
              (relu): ReLU()
            )
            (aspp3): _ASPPModule(
              (atrous_conv): Conv2d(256, 96, kernel_size=(3, 3), stride=(1, 1), padding=(12, 12), dilation=(12, 12), bias=False)
              (bn): BatchNorm2d(96, eps=1e-05, momentum=0.1, affine=True, track_running_stats=True)
              (relu): ReLU()
            )
            (aspp4): _ASPPModule(
              (atrous_conv): Conv2d(256, 96, kernel_size=(3, 3), stride=(1, 1), padding=(18, 18), dilation=(18, 18), bias=False)
              (bn): BatchNorm2d(96, eps=1e-05, momentum=0.1, affine=True, track_running_stats=True)
              (relu): ReLU()
            )
            (global_avg_pool): Sequential(
              (0): AdaptiveAvgPool2d(output_size=(1, 1))
              (1): Conv2d(256, 96, kernel_size=(1, 1), stride=(1, 1), bias=False)
              (2): BatchNorm2d(96, eps=1e-05, momentum=0.1, affine=True, track_running_stats=True)
              (3): ReLU()
            )
            (conv1): Conv2d(480, 256, kernel_size=(1, 1), stride=(1, 1), bias=False)
            (bn1): BatchNorm2d(256, eps=1e-05, momentum=0.1, affine=True, track_running_stats=True)
            (relu): ReLU()
            (dropout): Dropout(p=0.5, inplace=False)
          )
          (4): Conv2d(256, 80, kernel_size=(1, 1), stride=(1, 1))
        )
      )
    )
    (img_bev_encoder_neck): FPN(
      (lateral_convs): ModuleList(
        (0): ConvModule(
          (conv): Conv3d(80, 80, kernel_size=(1, 1, 1), stride=(1, 1, 1), bias=False)
          (bn): BatchNorm3d(80, eps=1e-05, momentum=0.1, affine=True, track_running_stats=True)
        )
        (1): ConvModule(
          (conv): Conv3d(160, 80, kernel_size=(1, 1, 1), stride=(1, 1, 1), bias=False)
          (bn): BatchNorm3d(80, eps=1e-05, momentum=0.1, affine=True, track_running_stats=True)
        )
        (2): ConvModule(
          (conv): Conv3d(320, 80, kernel_size=(1, 1, 1), stride=(1, 1, 1), bias=False)
          (bn): BatchNorm3d(80, eps=1e-05, momentum=0.1, affine=True, track_running_stats=True)
        )
      )
      (fpn_convs): ModuleList(
        (0): ConvModule(
          (conv): Conv3d(80, 80, kernel_size=(3, 3, 3), stride=(1, 1, 1), padding=(1, 1, 1), bias=False)
          (bn): BatchNorm3d(80, eps=1e-05, momentum=0.1, affine=True, track_running_stats=True)
        )
        (1): ConvModule(
          (conv): Conv3d(80, 80, kernel_size=(3, 3, 3), stride=(1, 1, 1), padding=(1, 1, 1), bias=False)
          (bn): BatchNorm3d(80, eps=1e-05, momentum=0.1, affine=True, track_running_stats=True)
        )
        (2): ConvModule(
          (conv): Conv3d(80, 80, kernel_size=(3, 3, 3), stride=(1, 1, 1), padding=(1, 1, 1), bias=False)
          (bn): BatchNorm3d(80, eps=1e-05, momentum=0.1, affine=True, track_running_stats=True)
        )
      )
    )
    init_cfg={'type': 'Xavier', 'layer': 'Conv2d', 'distribution': 'uniform'}
    (img_bev_encoder_backbone): CustomResNet3D(
      (layers): Sequential(
        (0): Sequential(
          (0): BasicBlock3D(
            (conv1): ConvModule(
              (conv): Conv3d(720, 80, kernel_size=(3, 3, 3), stride=(1, 1, 1), padding=(1, 1, 1), bias=False)
              (bn): BatchNorm3d(80, eps=1e-05, momentum=0.1, affine=True, track_running_stats=True)
              (activate): ReLU(inplace=True)
            )
            (conv2): ConvModule(
              (conv): Conv3d(80, 80, kernel_size=(3, 3, 3), stride=(1, 1, 1), padding=(1, 1, 1), bias=False)
              (bn): BatchNorm3d(80, eps=1e-05, momentum=0.1, affine=True, track_running_stats=True)
            )
            (downsample): ConvModule(
              (conv): Conv3d(720, 80, kernel_size=(3, 3, 3), stride=(1, 1, 1), padding=(1, 1, 1), bias=False)
              (bn): BatchNorm3d(80, eps=1e-05, momentum=0.1, affine=True, track_running_stats=True)
            )
            (relu): ReLU(inplace=True)
          )
        )
        (1): Sequential(
          (0): BasicBlock3D(
            (conv1): ConvModule(
              (conv): Conv3d(80, 160, kernel_size=(3, 3, 3), stride=(2, 2, 2), padding=(1, 1, 1), bias=False)
              (bn): BatchNorm3d(160, eps=1e-05, momentum=0.1, affine=True, track_running_stats=True)
              (activate): ReLU(inplace=True)
            )
            (conv2): ConvModule(
              (conv): Conv3d(160, 160, kernel_size=(3, 3, 3), stride=(1, 1, 1), padding=(1, 1, 1), bias=False)
              (bn): BatchNorm3d(160, eps=1e-05, momentum=0.1, affine=True, track_running_stats=True)
            )
            (downsample): ConvModule(
              (conv): Conv3d(80, 160, kernel_size=(3, 3, 3), stride=(2, 2, 2), padding=(1, 1, 1), bias=False)
              (bn): BatchNorm3d(160, eps=1e-05, momentum=0.1, affine=True, track_running_stats=True)
            )
            (relu): ReLU(inplace=True)
          )
          (1): BasicBlock3D(
            (conv1): ConvModule(
              (conv): Conv3d(160, 160, kernel_size=(3, 3, 3), stride=(1, 1, 1), padding=(1, 1, 1), bias=False)
              (bn): BatchNorm3d(160, eps=1e-05, momentum=0.1, affine=True, track_running_stats=True)
              (activate): ReLU(inplace=True)
            )
            (conv2): ConvModule(
              (conv): Conv3d(160, 160, kernel_size=(3, 3, 3), stride=(1, 1, 1), padding=(1, 1, 1), bias=False)
              (bn): BatchNorm3d(160, eps=1e-05, momentum=0.1, affine=True, track_running_stats=True)
            )
            (relu): ReLU(inplace=True)
          )
        )
        (2): Sequential(
          (0): BasicBlock3D(
            (conv1): ConvModule(
              (conv): Conv3d(160, 320, kernel_size=(3, 3, 3), stride=(2, 2, 2), padding=(1, 1, 1), bias=False)
              (bn): BatchNorm3d(320, eps=1e-05, momentum=0.1, affine=True, track_running_stats=True)
              (activate): ReLU(inplace=True)
            )
            (conv2): ConvModule(
              (conv): Conv3d(320, 320, kernel_size=(3, 3, 3), stride=(1, 1, 1), padding=(1, 1, 1), bias=False)
              (bn): BatchNorm3d(320, eps=1e-05, momentum=0.1, affine=True, track_running_stats=True)
            )
            (downsample): ConvModule(
              (conv): Conv3d(160, 320, kernel_size=(3, 3, 3), stride=(2, 2, 2), padding=(1, 1, 1), bias=False)
              (bn): BatchNorm3d(320, eps=1e-05, momentum=0.1, affine=True, track_running_stats=True)
            )
            (relu): ReLU(inplace=True)
          )
          (1): BasicBlock3D(
            (conv1): ConvModule(
              (conv): Conv3d(320, 320, kernel_size=(3, 3, 3), stride=(1, 1, 1), padding=(1, 1, 1), bias=False)
              (bn): BatchNorm3d(320, eps=1e-05, momentum=0.1, affine=True, track_running_stats=True)
              (activate): ReLU(inplace=True)
            )
            (conv2): ConvModule(
              (conv): Conv3d(320, 320, kernel_size=(3, 3, 3), stride=(1, 1, 1), padding=(1, 1, 1), bias=False)
              (bn): BatchNorm3d(320, eps=1e-05, momentum=0.1, affine=True, track_running_stats=True)
            )
            (relu): ReLU(inplace=True)
          )
        )
      )
    )
    (pre_process_net): CustomResNet3D(
      (layers): Sequential(
        (0): Sequential(
          (0): BasicBlock3D(
            (conv1): ConvModule(
              (conv): Conv3d(80, 80, kernel_size=(3, 3, 3), stride=(1, 1, 1), padding=(1, 1, 1), bias=False)
              (bn): BatchNorm3d(80, eps=1e-05, momentum=0.1, affine=True, track_running_stats=True)
              (activate): ReLU(inplace=True)
            )
            (conv2): ConvModule(
              (conv): Conv3d(80, 80, kernel_size=(3, 3, 3), stride=(1, 1, 1), padding=(1, 1, 1), bias=False)
              (bn): BatchNorm3d(80, eps=1e-05, momentum=0.1, affine=True, track_running_stats=True)
            )
            (downsample): ConvModule(
              (conv): Conv3d(80, 80, kernel_size=(3, 3, 3), stride=(1, 1, 1), padding=(1, 1, 1), bias=False)
              (bn): BatchNorm3d(80, eps=1e-05, momentum=0.1, affine=True, track_running_stats=True)
            )
            (relu): ReLU(inplace=True)
          )
        )
      )
    )
  )
  (backward_projection_list): ModuleList(
    (0): SparseBEVFormerBackwardProjection(
      (positional_encoding): CustormLearnedPositionalEncoding(num_feats=40, row_num_embed=100, col_num_embed=100)
      (transformer): SparseBEVFormer(
        (encoder): SparseBEVFormerEncoder(
          (layers): ModuleList(
            (0): SparseBEVFormerEncoderLayer(
              (attentions): ModuleList(
                (0): MultiScaleDeformableAttention(
                  (dropout): Dropout(p=0.0, inplace=False)
                  (sampling_offsets): Linear(in_features=80, out_features=64, bias=True)
                  (attention_weights): Linear(in_features=80, out_features=32, bias=True)
                  (value_proj): Linear(in_features=80, out_features=80, bias=True)
                  (output_proj): Linear(in_features=80, out_features=80, bias=True)
                )
                (1): OA_SpatialCrossAttention(
                  (dropout): Dropout(p=0.0, inplace=False)
                  (deformable_attention): OA_MSDeformableAttention(
                    (sampling_offsets): Linear(in_features=80, out_features=128, bias=True)
                    (attention_weights): Linear(in_features=80, out_features=64, bias=True)
                    (value_proj): Linear(in_features=80, out_features=80, bias=True)
                  )
                  (output_proj): Linear(in_features=80, out_features=80, bias=True)
                )
              )
              (ffns): ModuleList(
                (0): FFN(
                  (activate): ReLU(inplace=True)
                  (layers): Sequential(
                    (0): Sequential(
                      (0): Linear(in_features=80, out_features=320, bias=True)
                      (1): ReLU(inplace=True)
                      (2): Dropout(p=0.0, inplace=False)
                    )
                    (1): Linear(in_features=320, out_features=80, bias=True)
                    (2): Dropout(p=0.0, inplace=False)
                  )
                  (dropout_layer): Identity()
                )
              )
              (norms): ModuleList(
                (0): LayerNorm((80,), eps=1e-05, elementwise_affine=True)
                (1): LayerNorm((80,), eps=1e-05, elementwise_affine=True)
              )
            )
            (1): SparseBEVFormerEncoderLayer(
              (attentions): ModuleList(
                (0): MultiScaleDeformableAttention(
                  (dropout): Dropout(p=0.0, inplace=False)
                  (sampling_offsets): Linear(in_features=80, out_features=64, bias=True)
                  (attention_weights): Linear(in_features=80, out_features=32, bias=True)
                  (value_proj): Linear(in_features=80, out_features=80, bias=True)
                  (output_proj): Linear(in_features=80, out_features=80, bias=True)
                )
                (1): OA_SpatialCrossAttention(
                  (dropout): Dropout(p=0.0, inplace=False)
                  (deformable_attention): OA_MSDeformableAttention(
                    (sampling_offsets): Linear(in_features=80, out_features=128, bias=True)
                    (attention_weights): Linear(in_features=80, out_features=64, bias=True)
                    (value_proj): Linear(in_features=80, out_features=80, bias=True)
                  )
                  (output_proj): Linear(in_features=80, out_features=80, bias=True)
                )
              )
              (ffns): ModuleList(
                (0): FFN(
                  (activate): ReLU(inplace=True)
                  (layers): Sequential(
                    (0): Sequential(
                      (0): Linear(in_features=80, out_features=320, bias=True)
                      (1): ReLU(inplace=True)
                      (2): Dropout(p=0.0, inplace=False)
                    )
                    (1): Linear(in_features=320, out_features=80, bias=True)
                    (2): Dropout(p=0.0, inplace=False)
                  )
                  (dropout_layer): Identity()
                )
              )
              (norms): ModuleList(
                (0): LayerNorm((80,), eps=1e-05, elementwise_affine=True)
                (1): LayerNorm((80,), eps=1e-05, elementwise_affine=True)
              )
            )
          )
          (occ_predictor): OccPredictor(
            (bev_conv): ConvModule(
              (conv): Conv2d(80, 80, kernel_size=(3, 3), stride=(1, 1), padding=(1, 1))
              (activate): ReLU(inplace=True)
            )
            (predicter): Sequential(
              (0): Linear(in_features=80, out_features=160, bias=True)
              (1): Softplus(beta=1, threshold=20)
              (2): Linear(in_features=160, out_features=144, bias=True)
            )
          )
        )
      )
      (bev_embedding): Embedding(10000, 80)
    )
    (1): SparseBEVFormerBackwardProjection(
      (positional_encoding): CustormLearnedPositionalEncoding(num_feats=40, row_num_embed=50, col_num_embed=50)
      (transformer): SparseBEVFormer(
        (encoder): SparseBEVFormerEncoder(
          (layers): ModuleList(
            (0): SparseBEVFormerEncoderLayer(
              (attentions): ModuleList(
                (0): MultiScaleDeformableAttention(
                  (dropout): Dropout(p=0.0, inplace=False)
                  (sampling_offsets): Linear(in_features=80, out_features=64, bias=True)
                  (attention_weights): Linear(in_features=80, out_features=32, bias=True)
                  (value_proj): Linear(in_features=80, out_features=80, bias=True)
                  (output_proj): Linear(in_features=80, out_features=80, bias=True)
                )
                (1): OA_SpatialCrossAttention(
                  (dropout): Dropout(p=0.0, inplace=False)
                  (deformable_attention): OA_MSDeformableAttention(
                    (sampling_offsets): Linear(in_features=80, out_features=64, bias=True)
                    (attention_weights): Linear(in_features=80, out_features=32, bias=True)
                    (value_proj): Linear(in_features=80, out_features=80, bias=True)
                  )
                  (output_proj): Linear(in_features=80, out_features=80, bias=True)
                )
              )
              (ffns): ModuleList(
                (0): FFN(
                  (activate): ReLU(inplace=True)
                  (layers): Sequential(
                    (0): Sequential(
                      (0): Linear(in_features=80, out_features=320, bias=True)
                      (1): ReLU(inplace=True)
                      (2): Dropout(p=0.0, inplace=False)
                    )
                    (1): Linear(in_features=320, out_features=80, bias=True)
                    (2): Dropout(p=0.0, inplace=False)
                  )
                  (dropout_layer): Identity()
                )
              )
              (norms): ModuleList(
                (0): LayerNorm((80,), eps=1e-05, elementwise_affine=True)
                (1): LayerNorm((80,), eps=1e-05, elementwise_affine=True)
              )
            )
            (1): SparseBEVFormerEncoderLayer(
              (attentions): ModuleList(
                (0): MultiScaleDeformableAttention(
                  (dropout): Dropout(p=0.0, inplace=False)
                  (sampling_offsets): Linear(in_features=80, out_features=64, bias=True)
                  (attention_weights): Linear(in_features=80, out_features=32, bias=True)
                  (value_proj): Linear(in_features=80, out_features=80, bias=True)
                  (output_proj): Linear(in_features=80, out_features=80, bias=True)
                )
                (1): OA_SpatialCrossAttention(
                  (dropout): Dropout(p=0.0, inplace=False)
                  (deformable_attention): OA_MSDeformableAttention(
                    (sampling_offsets): Linear(in_features=80, out_features=64, bias=True)
                    (attention_weights): Linear(in_features=80, out_features=32, bias=True)
                    (value_proj): Linear(in_features=80, out_features=80, bias=True)
                  )
                  (output_proj): Linear(in_features=80, out_features=80, bias=True)
                )
              )
              (ffns): ModuleList(
                (0): FFN(
                  (activate): ReLU(inplace=True)
                  (layers): Sequential(
                    (0): Sequential(
                      (0): Linear(in_features=80, out_features=320, bias=True)
                      (1): ReLU(inplace=True)
                      (2): Dropout(p=0.0, inplace=False)
                    )
                    (1): Linear(in_features=320, out_features=80, bias=True)
                    (2): Dropout(p=0.0, inplace=False)
                  )
                  (dropout_layer): Identity()
                )
              )
              (norms): ModuleList(
                (0): LayerNorm((80,), eps=1e-05, elementwise_affine=True)
                (1): LayerNorm((80,), eps=1e-05, elementwise_affine=True)
              )
            )
          )
          (occ_predictor): OccPredictor(
            (bev_conv): ConvModule(
              (conv): Conv2d(80, 80, kernel_size=(3, 3), stride=(1, 1), padding=(1, 1))
              (activate): ReLU(inplace=True)
            )
            (predicter): Sequential(
              (0): Linear(in_features=80, out_features=160, bias=True)
              (1): Softplus(beta=1, threshold=20)
              (2): Linear(in_features=160, out_features=72, bias=True)
            )
          )
        )
      )
      (bev_embedding): Embedding(2500, 80)
    )
    (2): SparseBEVFormerBackwardProjection(
      (positional_encoding): CustormLearnedPositionalEncoding(num_feats=40, row_num_embed=25, col_num_embed=25)
      (transformer): SparseBEVFormer(
        (encoder): SparseBEVFormerEncoder(
          (layers): ModuleList(
            (0): SparseBEVFormerEncoderLayer(
              (attentions): ModuleList(
                (0): MultiScaleDeformableAttention(
                  (dropout): Dropout(p=0.0, inplace=False)
                  (sampling_offsets): Linear(in_features=80, out_features=64, bias=True)
                  (attention_weights): Linear(in_features=80, out_features=32, bias=True)
                  (value_proj): Linear(in_features=80, out_features=80, bias=True)
                  (output_proj): Linear(in_features=80, out_features=80, bias=True)
                )
                (1): OA_SpatialCrossAttention(
                  (dropout): Dropout(p=0.0, inplace=False)
                  (deformable_attention): OA_MSDeformableAttention(
                    (sampling_offsets): Linear(in_features=80, out_features=32, bias=True)
                    (attention_weights): Linear(in_features=80, out_features=16, bias=True)
                    (value_proj): Linear(in_features=80, out_features=80, bias=True)
                  )
                  (output_proj): Linear(in_features=80, out_features=80, bias=True)
                )
              )
              (ffns): ModuleList(
                (0): FFN(
                  (activate): ReLU(inplace=True)
                  (layers): Sequential(
                    (0): Sequential(
                      (0): Linear(in_features=80, out_features=320, bias=True)
                      (1): ReLU(inplace=True)
                      (2): Dropout(p=0.0, inplace=False)
                    )
                    (1): Linear(in_features=320, out_features=80, bias=True)
                    (2): Dropout(p=0.0, inplace=False)
                  )
                  (dropout_layer): Identity()
                )
              )
              (norms): ModuleList(
                (0): LayerNorm((80,), eps=1e-05, elementwise_affine=True)
                (1): LayerNorm((80,), eps=1e-05, elementwise_affine=True)
              )
            )
          )
          (occ_predictor): OccPredictor(
            (bev_conv): ConvModule(
              (conv): Conv2d(80, 80, kernel_size=(3, 3), stride=(1, 1), padding=(1, 1))
              (activate): ReLU(inplace=True)
            )
            (predicter): Sequential(
              (0): Linear(in_features=80, out_features=160, bias=True)
              (1): Softplus(beta=1, threshold=20)
              (2): Linear(in_features=160, out_features=36, bias=True)
            )
          )
        )
      )
      (bev_embedding): Embedding(625, 80)
    )
  )
  (occupancy_head): OccupancyHead(
    (voxel_conv): BasicBlock3D(
      (conv1): ConvModule(
        (conv): Conv3d(80, 80, kernel_size=(3, 3, 3), stride=(1, 1, 1), padding=(1, 1, 1), bias=False)
        (bn): BatchNorm3d(80, eps=1e-05, momentum=0.1, affine=True, track_running_stats=True)
        (activate): ReLU(inplace=True)
      )
      (conv2): ConvModule(
        (conv): Conv3d(80, 80, kernel_size=(3, 3, 3), stride=(1, 1, 1), padding=(1, 1, 1), bias=False)
        (bn): BatchNorm3d(80, eps=1e-05, momentum=0.1, affine=True, track_running_stats=True)
      )
      (relu): ReLU(inplace=True)
    )
    (predicter): Sequential(
      (0): Linear(in_features=80, out_features=160, bias=True)
      (1): Softplus(beta=1, threshold=20)
      (2): Linear(in_features=160, out_features=18, bias=True)
    )
    (focal_loss): CustomFocalLoss()
  )
  (nerf_head): NeRFHead(
    (voxel_conv): BasicBlock3D(
      (conv1): ConvModule(
        (conv): Conv3d(80, 80, kernel_size=(3, 3, 3), stride=(1, 1, 1), padding=(1, 1, 1), bias=False)
        (bn): BatchNorm3d(80, eps=1e-05, momentum=0.1, affine=True, track_running_stats=True)
        (activate): ReLU(inplace=True)
      )
      (conv2): ConvModule(
        (conv): Conv3d(80, 80, kernel_size=(3, 3, 3), stride=(1, 1, 1), padding=(1, 1, 1), bias=False)
        (bn): BatchNorm3d(80, eps=1e-05, momentum=0.1, affine=True, track_running_stats=True)
      )
      (relu): ReLU(inplace=True)
    )
    (density_predicter): Sequential(
      (0): Linear(in_features=80, out_features=40, bias=True)
      (1): Softplus(beta=1, threshold=20)
      (2): Linear(in_features=40, out_features=1, bias=True)
    )
    (density): Sigmoid()
    (render_dep_loss): SiLogLoss()
  )
)
2024-05-07 10:32:47,715 - mmdet - INFO - load checkpoint from local path: ckpts/forward_projection-r50-4d-stereo-pretrained.pth
2024-05-07 10:32:47,872 - mmdet - WARNING - The model and loaded state dict do not match exactly

size mismatch for forward_projection.img_view_transformer.depth_net.cost_volumn_net.0.weight: copying a param with shape torch.Size([59, 59, 3, 3]) from checkpoint, the shape in current model is torch.Size([80, 80, 3, 3]).
…
